weights/B.npy (npy, 704 bytes, 1 tensors)

array f8 [3, 24]
000000 46 8c bd 9b e7 2a cb 3f 05 08 49 02 f2 90 b5 bf
       0.21224684814942146 -0.08424294048111854
000010 87 46 df ec 36 76 a3 3f ef 39 6b d4 29 f1 26 3f
       0.03801128045564633 0.00017503390900804004
000020 47 99 3a f8 0f c4 82 3f fe 4e d8 0e c4 00 81 3f
       0.009163021815152063 0.00830224199584206
000030 6d 30 64 01 e0 73 3e 3f f4 f1 8c 0c 0a 9e 96 3f
       0.0004646703613537865 0.02208724691011983
000040 f7 42 8c 3c 34 71 80 3f 01 2a 44 a1 ec 9b 80 3f
       0.008028419587874576 0.008109902068572874
000050 60 4d 09 eb de 05 38 bf 52 6d f4 d4 6a 70 78 3f
       -0.00036656086289107125 0.0059665845031092336
000060 3e c9 f9 2e d4 31 66 3f 51 6d 36 e4 c4 c0 7f 3f
       0.0027093071183169884 0.007752198321578988
000070 7e 47 db ac 1b c8 8b 3f 5d 8d 33 7f e0 e4 83 3f
       0.013565269673026622 0.009713891870382236
000080 c4 cd 49 9e 63 bf 84 3f 1f a3 e7 eb 9c a5 80 3f
       0.010130670803142013 0.00812838168072144
000090 1f 45 e0 3c 59 17 6d bf 91 05 11 79 84 f0 42 3f
       -0.003551172535488547 0.0005779883232507767
0000a0 2f 5b bb 41 53 55 95 3f b3 09 cb 24 d7 42 a3 bf
       0.02083330239005504 -0.03761932682165838
0000b0 44 12 b7 c5 df 31 bd bf 80 2f 82 b1 f4 21 b8 3f
       -0.11404226853398663 0.09426812490181469
0000c0 48 98 1a 58 ba 59 ac 3f a8 6a 14 74 06 9b b1 3f
       0.05537206960188762 0.06877174695947963
0000d0 4c 47 32 c8 9d fd b4 3f 5a e4 d7 a2 f0 86 a1 3f
       0.081994878173899 0.034232635382019
0000e0 4b 1c 81 61 8f 02 b2 be 21 68 c4 20 5d ed c3 be
       -1.0734796713916878e-06 -2.3755076253963657e-06
0000f0 2c 42 21 76 74 0c d3 be c0 3f 55 3b 97 e3 da 3e
       -4.541552558093769e-06 6.410843459050909e-06
000100 ba 86 44 4c f7 7e d2 be 4e 57 65 2a 69 30 d0 be
       -4.409780732823958e-06 -3.859783339462743e-06
000110 60 99 2a 81 28 a7 dd 3e 1c ad c9 3c 11 2d d7 3e
       7.069817018623366e-06 5.525599544679916e-06
000120 cc 58 0e ea 93 86 dd 3e e4 0a 1c 02 12 44 c0 3e
       7.039474127964843e-06 1.9390463571478817e-06
000130 cf db b6 a5 3c 7c d1 be 16 39 36 53 21 9d a9 3e
       -4.168820477649028e-06 7.633504196956561e-07
000140 66 a6 c5 03 63 17 d3 3e 3e 39 de 95 a0 7a d5 be
       4.5517336356520884e-06 -5.120995721598276e-06
000150 14 7d 55 47 23 ae d2 3e 07 49 9d 6f 08 18 c3 3e
       4.453712894785721e-06 2.2761677173434376e-06
000160 f2 1f 83 00 b9 4b d7 be 24 3f 3d c6 3d 2a 86 be
       -5.554149545790298e-06 -1.651421569445176e-07
000170 b6 cb ff cc 74 e7 ce be c8 11 cd 3c 5c f9 df 3e
       -3.6840589032692757e-06 7.623210831312869e-06
000180 13 ae ad b2 61 a6 c0 3f e0 ad c6 6f 41 3c bc 3f
       0.1300775644734676 0.11029442767055953
000190 39 de da 00 4e 36 86 3e 66 17 6b 31 c6 31 b0 3e
       1.6549324793000568e-07 9.652632734654026e-07
0001a0 43 9c af 90 a8 6b b4 be 48 34 90 3b 7a a4 da be
       -1.217159083516528e-06 -6.352064638737399e-06
0001b0 20 8e 7a d3 9d 51 c3 be f5 30 02 9b a0 0e c9 3e
       -2.3029821497198892e-06 2.9870436364984664e-06
0001c0 45 49 dc 48 21 ac a2 3e e3 81 43 8d 8b cb a0 be
       5.564803744215627e-07 -5.005329293505068e-07
0001d0 44 67 f5 6e 15 2c ce be 6b aa d1 dd 62 e8 db 3e
       -3.596806770350774e-06 6.65372814721375e-06
0001e0 33 5b 6a 6d a8 73 d5 3e 0e 40 66 0d 39 51 78 3e
       5.114504992540306e-06 9.05889153467265e-08
0001f0 cc b2 15 0e 32 9b 9f 3e 89 11 8a d9 1d 3c 97 3e
       4.7096956564441636e-07 3.462259541636304e-07
000200 b6 c4 9b 7d 32 99 cc be 2e 87 25 90 5b 97 b6 3e
       -3.4091981263519978e-06 1.3465428883797654e-06
000210 55 16 aa 89 c8 5e bc be 50 68 fd ad 9a 4c bd 3e
       -1.6909985222369644e-06 1.7463705077242968e-06
000220 d9 7e 8c 65 21 08 b0 be 42 51 a0 b4 6c 29 b8 3e
       -9.555673356544877e-07 1.4401563981402884e-06
000230 17 1f d4 64 b5 fd c2 be e6 0e 92 c3 f1 57 aa be
       -2.263909471115251e-06 -7.850984565936511e-07
