weights/B.npy (npy, 704 bytes, 1 tensors)

array f8 [3, 24]
0	0x3fcb2a9e5277bf56	0.21223811175104385
1	0xbfb59198e85927e5	-0.08425288841786445
2	0x3fa374c707d73638	0.038000316340554396
3	0x3f2621952bc8145e	0.00016884752211879494
4	0x3f82c4802f76f92a	0.009163857887753386
5	0x3f80fb1a63b29127	0.00829144112351139
6	0x3f3db63b66fe340c	0.0004533667588411678
7	0x3f969cf6a7f62fd8	0.022083143235746977
8	0x3f806d65b229d925	0.008021158694856265
9	0x3f8098094c7aa301	0.00810248627324617
10	0xbf3882ae87544519	-0.00037400017693396817
11	0x3f7865c438181322	0.005956427079131273
12	0x3f661f324e4e39db	0.002700422528909769
13	0x3f7fc20e8b7fcfed	0.007753426376428491
14	0x3f8bc2b0e1bead61	0.013554937256990031
15	0x3f83e50b4b22da2b	0.009714210730050151
16	0x3f84bab90f2045bd	0.010121770643339962
17	0x3f80a51b79f5e6ff	0.008127417239609523
18	0xbf6d29e1a53bdb36	-0.0035600096833791296
19	0x3f42bc5d3d0a2e56	0.0005717711702159605
20	0x3f9551264a582d76	0.02081737355005716
21	0xbfa34304b58f1287	-0.037620684779118334
22	0xbfbd3215f4f46bf7	-0.11404549818364261
23	0x3fb821a32f2a0006	0.0942632665774
24	0x3fac597fe4195bbe	0.055370327562449514
25	0x3fb19af4cce374a1	0.06877069475327115
26	0x3fb4fd9e00e57372	0.08199489137537144
27	0x3fa1869752bcddf4	0.0342299736498112
28	0xbed15a11ed5c5281	-4.13700009517916e-06
29	0xbeaebbfd1c9d44ca	-9.159544387215328e-07
30	0xbed0bc3afece5033	-3.9900005334333065e-06
31	0xbec02d54e1435a6c	-1.9284577864418287e-06
32	0xbebaa8a3c6118461	-1.5889852636108024e-06
33	0xbed4389f8b643646	-4.821106065711734e-06
34	0xbecbc40f1489dc15	-3.309947860959386e-06
35	0xbeb125b6bbaafb9b	-1.022059889762878e-06
36	0xbeccdb4fce1d3ec7	-3.4399850940349037e-06
37	0xbecba44f33912668	-3.295163335557961e-06
38	0x3eb8e2f4dd36e65f	1.4833539026939941e-06
39	0xbec1c1461827bd4e	-2.1165580517051716e-06
40	0xbed7c03cfef2a4fb	-5.6626631554171056e-06
41	0xbec0ec5a8bc74427	-2.017409398848597e-06
42	0x3eab28b8c37dca59	8.09403338115844e-07
43	0xbec7d97bf06ae4eb	-2.8430876029798605e-06
44	0xbebf20b86e061e3b	-1.8553623065425696e-06
45	0xbedbb3b15c3b488e	-6.604653609536738e-06
46	0xbed7be5342d17749	-5.660881510297975e-06
47	0xbeca5554292e5eb5	-3.1391758254609145e-06
48	0x3fc0a68ac59580cd	0.1300824608579262
49	0x3fbc3c51bca3141a	0.11029539924045687
50	0xbea360f3cf33596a	-5.77530867930035e-07
51	0xbebbbd2ce07b22e3	-1.6533712158697294e-06
52	0xbeb2f8fd1dcd0068	-1.1308558136164047e-06
53	0x3e8fca9a90ef90fb	2.3686454439433556e-07
54	0xbec060898877911f	-1.952302287599097e-06
55	0x3eb1ae9b5f70a884	1.0539328039274357e-06
56	0xbe72618bcde3c76a	-6.847470810139846e-08
57	0xbeba7451f69a0206	-1.5768036639997027e-06
58	0xbec65e98b33e74eb	-2.666654291118473e-06
59	0xbeda9cf13255273c	-6.34504684644284e-06
60	0xbec10427d38f2a80	-2.028493011318078e-06
61	0xbecfc5295c8c390a	-3.7872984858306704e-06
62	0x3e83522e4a7d4cc1	1.4395280811350216e-07
63	0x3eb192256fb1a2b0	1.0473062832754773e-06
64	0xbed6aac639e8d84d	-5.404254720667019e-06
65	0xbedbceaec67aea9b	-6.629789914997876e-06
66	0xbec01d8c2ee8ccf1	-1.9211078019720926e-06
67	0xbec4617f44970800	-2.4295864348997456e-06
68	0xbec2bb59ee56d053	-2.2330094561988025e-06
69	0xbeb2152363eebb25	-1.0778052368200374e-06
70	0xbe8c4fa485707281	-2.1093416322026534e-07
71	0x3eccc2bbd3c23ff4	3.4285400528147274e-06
