weights/B.npy (npy, 704 bytes, 1 tensors)

array f8 [3, 24]
000000 2b 42 0c 5b bd 54 cb 3f d0 e6 a0 4d b8 91 b5 bf
       0.21352354951570027 -0.0842547597429999
000010 98 1f 73 97 52 2a a3 3f 7d 24 12 f5 5e b5 26 3f
       0.037432270991813954 0.00017325195452525316
000020 f2 a7 8d d5 63 c7 82 3f 95 64 c3 2a 5e cc 80 3f
       0.009169368700629097 0.00820230072024434
000030 7d 68 4a 0e ac a8 41 3f 63 c2 2c a4 fd a4 96 3f
       0.0005389061085055016 0.022113764901578025
000040 84 24 53 bf a4 7a 80 3f f5 3a 70 ee e6 b8 81 3f
       0.008046423996704861 0.00865345397144555
000050 7a 9a c7 aa 0b f4 39 bf 5b e1 ae 18 2e 9c 77 3f
       -0.0003960159763480086 0.005764179290899864
000060 7c de 12 cb 29 16 66 3f c9 25 c2 8b d4 60 80 3f
       0.0026961151384872744 0.007997189059341008
000070 23 2b d4 81 71 f8 8a 3f bc 24 13 d3 c5 84 84 3f
       0.013169180655059847 0.010018868926993434
000080 07 75 bb df 7c 80 84 3f d5 86 ac 3b b6 d5 80 3f
       0.01001069600845962 0.008220123001197713
000090 5e 62 98 64 e6 30 6e bf 3c 46 31 b5 27 64 46 3f
       -0.0036854266989048553 0.0006833261380824805
0000a0 f6 a7 f8 a7 25 0c 97 3f cb 73 d4 76 d4 35 a3 bf
       0.022507274987368896 -0.037520064836122545
0000b0 34 fd 72 a9 0b 2f bd bf 03 1d a5 65 9c 6c b7 3f
       -0.11399910818999076 0.09150102120939967
0000c0 9e cc 2c 0d 61 97 ac 3f 24 1e f5 eb c7 32 b1 3f
       0.0558424309332619 0.06718110571556984
0000d0 be 9a b8 4a cc 63 b5 3f 7c bc 81 00 26 63 a1 3f
       0.08355404686208609 0.033959567605841706
0000e0 be 5f b1 e7 33 ea cd 3e 69 ad a4 11 7c d9 d4 3e
       3.566128552939085e-06 4.9709199408208495e-06
0000f0 42 67 be d1 78 81 d1 3e d6 56 ab 16 67 25 c9 3e
       4.173695994946955e-06 2.997649223383503e-06
000100 b2 5d 6c bf 23 e4 da 3e a5 74 8f c4 50 9b cf 3e
       6.411354653199974e-06 3.767812391404658e-06
000110 b2 32 d6 25 b4 78 d4 3e 57 81 a5 b9 25 20 d2 3e
       4.8807856648623875e-06 4.321473989627191e-06
000120 46 5f 3a db b5 89 a6 be 12 7e 6a 3a b3 02 d9 3e
       -6.716826903172835e-07 5.9629791510358555e-06
000130 70 e0 21 8c b5 35 c0 3e 18 aa 9f 29 13 bf bc be
       1.9323589138219496e-06 -1.7134181349252102e-06
000140 90 c8 12 3b b8 5a c1 3e 0b cd 36 01 73 24 d7 3e
       2.0688025520127897e-06 5.517573316837829e-06
000150 f6 7c 74 c7 4b 09 a0 be 65 46 d1 79 59 e2 cc 3e
       -4.779193564541937e-07 3.4432623139755974e-06
000160 d8 60 c7 6b 0d 3e a1 be 64 4e a8 e8 b8 1e a3 3e
       -5.138633337132985e-07 5.698206718162278e-07
000170 98 7f 4c 55 fe 12 d2 3e 2c 0f 9d 79 44 d6 d0 3e
       4.309223488957371e-06 4.014249407383556e-06
000180 d9 f7 dc 4b 90 9b c0 3f da 13 5b 9a 27 5c bc 3f
       0.1297474260736056 0.11078116911364991
000190 3c 3f b6 0b db ec b7 3e c8 2e 7d 15 c5 4d c2 3e
       1.4260540826850217e-06 2.1819816246377505e-06
0001a0 36 07 ed b0 5b 2f dc 3e a6 31 30 f3 df 84 5d be
       6.719825946190259e-06 -2.7491750386646617e-08
0001b0 b1 2a ed df 15 d6 b7 3e 16 20 cf 15 8f 14 8f 3e
       1.42075248251115e-06 2.3156634201674613e-07
0001c0 fa 3e 30 54 b1 b7 d7 3e 3d d4 47 71 dc ed c7 3e
       5.6547044691294125e-06 2.8525763673356312e-06
0001d0 bb 1b d5 0e dd e5 89 be d4 46 7a bc 83 5b d8 3e
       -1.9295442347575715e-07 5.807275506379643e-06
0001e0 d1 ee 0b 9b 1e bd 57 3e b3 9a 79 c8 db a9 93 be
       2.2108432143153767e-08 -2.930091302699871e-07
0001f0 f5 5b cc 55 c3 14 d0 3e 76 cd 80 6b 47 04 d9 3e
       3.834034342251558e-06 5.964449592044262e-06
000200 db 15 8e cb be 35 7a 3e 32 2e 83 bd 05 f3 92 be
       9.763964471499098e-08 -2.8236666828045255e-07
000210 76 bb c7 e7 65 75 c4 3e 7c ce 79 54 14 5d e0 3e
       2.4388535264577923e-06 7.802768450227602e-06
000220 54 34 80 d9 e9 30 7f be 4b 08 a3 f7 ff 70 c4 3e
       -1.1619578399475438e-07 2.4368054570576113e-06
000230 eb 90 d9 f7 c3 e3 d3 3e e6 82 8e 69 1b 82 b3 3e
       4.7420761553932426e-06 1.162781165777051e-06
